ihmc-perception/src/main/resources/weights/height_map_autoencoder.onnx (onnx, 260703 bytes, 11 tensors)

encoder.conv1.weight f4 [16, 1, 3, 3]
0	0x3cf5bef9	0.02999829
1	0x3e9765ca	0.29569846
2	0x3e9db959	0.30805472
3	0xbe63d35b	-0.22248594
4	0xbe34c28b	-0.17652337
5	0x3e0a0a71	0.13480546
6	0x3e34332a	0.17597643
7	0x3e49f3a1	0.19721843
8	0xbdc47622	-0.095928445
9	0x3ed2c287	0.41164038
10	0x3e935919	0.28778914
11	0xbccc5a85	-0.024945507
12	0xbe074da9	-0.13213219
13	0xbce878c0	-0.02837789
14	0xbe1fdd63	-0.15611796
15	0xbe57b59a	-0.21065369
16	0xbc8c1ca1	-0.017103495
17	0xbe08f355	-0.13374074
18	0x3e89b5c9	0.26896504
19	0x3e39588f	0.18100189
20	0xbe88fd26	-0.26755637
21	0xbcc3e877	-0.023914559
22	0xbe6bbdaf	-0.23021577
23	0xbe2639d2	-0.16232994
24	0xbe3562db	-0.17713492
25	0x3cf4266a	0.029803474
26	0xbe52499f	-0.20535897
27	0x3c7063de	0.014672248
28	0xbd83f2f2	-0.064428225
29	0xbde29a0c	-0.11064538
30	0xbddaabe4	-0.10677317
31	0x3d85e9a5	0.06538705
32	0x3ee78fd4	0.4522692
33	0xbe6cb50b	-0.23115937
34	0xbe861e84	-0.26195157
35	0x3e743a04	0.23850256
36	0xbe521393	-0.2051528
37	0xbddc3beb	-0.10753616
38	0xbd4da18e	-0.0502029
39	0x3e63abcc	0.22233504
40	0x3e596944	0.21231562
41	0xbd4c3336	-0.049853526
42	0x3c227441	0.009915412
43	0x3e57ffd7	0.21093689
44	0xbe726049	-0.23669542
45	0x3dffa57e	0.12482737
46	0xbd49ab37	-0.04923555
47	0x3cc74e73	0.0243294
48	0xbeac4576	-0.33646744
49	0x3d580a7b	0.05274437
50	0xbe8baee6	-0.27281874
51	0xbe8a8ba4	-0.27059662
52	0xbed81067	-0.42200014
53	0xbdf408fd	-0.11915777
54	0xbdb7b8ac	-0.0897077
55	0x3c0a82c4	0.0084540285
56	0x3e8dc45e	0.2768888
57	0x3e21f731	0.15816952
58	0xbc22498c	-0.00990523
59	0x3bade700	0.0053070784
60	0xbe3acc4c	-0.18241996
61	0x3e8fc8ab	0.28082785
62	0x3e079eeb	0.13244216
63	0xbd59a9a6	-0.053140305
64	0x3de375f7	0.111064844
65	0xbd0017e3	-0.03127278
66	0x3e43dc73	0.19127063
67	0x3e775578	0.24153697
68	0x3e8e7e7e	0.2783088
69	0xbe2053ff	-0.15657042
70	0x3c934e14	0.017981566
71	0x3e85ff2d	0.26171246
72	0x3e7e9e34	0.24865037
73	0xbd9d9b4a	-0.07695635
74	0xbe68ec8c	-0.22746485
75	0xbe094898	-0.13406599
76	0xbdd8bf53	-0.10583367
77	0x3f117862	0.56824315
78	0xbe220abd	-0.15824409
79	0xbda9542b	-0.08268007
80	0x3c82a8f5	0.015949706
81	0xbe6df603	-0.23238377
82	0xbd669091	-0.056290213
83	0xbe397199	-0.1810974
84	0xbe4b23fc	-0.19837946
85	0x3e5f8d7a	0.21831313
86	0x3e934e03	0.28770456
87	0x3e0eaa1e	0.13932082
88	0x3e6bc050	0.2302258
89	0x3e940d83	0.2891656
90	0x3e7c225b	0.2462248
91	0xbe55da1c	-0.20883983
92	0xbe22b23c	-0.15888304
93	0x3de6d845	0.11271719
94	0x3df0af90	0.11752236
95	0xbcf4f611	-0.02990249
96	0x3e8a2731	0.26983026
97	0xbe175805	-0.1477967
98	0xbda4bb4c	-0.080435365
99	0x3e7830f2	0.24237421
100	0x3e531fbd	0.20617576
101	0xbe287a62	-0.16452935
102	0x3e552bd7	0.20817505
103	0x3e394365	0.18092115
104	0xbe4a8dac	-0.19780606
105	0xbe93c7d9	-0.2886341
106	0x3b86b22f	0.0041105966
107	0xbe97a2f7	-0.2961652
108	0x3e4a59cc	0.19760817
109	0x3ea521ad	0.32252255
110	0xbe9fc5f3	-0.3120571
111	0xbc938c4a	-0.018011231
112	0x3e00a903	0.12564473
113	0xbe37b0e7	-0.17938577
114	0x3e1d7e7d	0.15380283
115	0x3e4757dd	0.19467111
116	0x3c1d3d8e	0.009597195
117	0x3e1d7946	0.15378293
118	0xbd12e4eb	-0.035862844
119	0xbe1cd80e	-0.15316793
120	0xbcb53e96	-0.02212457
121	0xbe940a1b	-0.2891396
122	0xbe3cda98	-0.18442762
123	0xbdbd2ef6	-0.09237473
124	0xbe33b508	-0.17549527
125	0x3d920cdb	0.07131358
126	0x3db591a3	0.088656686
127	0x3c9c8d2c	0.019110285
128	0xbde006ed	-0.10938821
129	0x3d15fb3b	0.036616545
130	0xbea2ab72	-0.31771427
131	0xbe8466b6	-0.25859612
132	0x3e48861f	0.19582413
133	0xbd8d0862	-0.068863645
134	0x3e1fb8b1	0.15597798
135	0xbc919a10	-0.017773658
136	0x3e5bc214	0.21460754
137	0x3dde5af1	0.108571894
138	0xbd29ba88	-0.041437656
139	0xbe8837a4	-0.2660495
140	0xbddad266	-0.106846616
141	0xbd28b932	-0.04119224
142	0x3e6e88e6	0.2329441
143	0x3eddd46b	0.43326125

encoder.conv1.bias f4 [16]
0	0xbd68a786	-0.056800388
1	0xba7e4649	-0.00096998044
2	0x3e8c7972	0.27436405
3	0xb7ecaafb	-2.8213011e-05
4	0xb7b30162	-2.1339107e-05
5	0x3e045654	0.12923557
6	0xbe140e07	-0.14458476
7	0x3df1d3ba	0.11807962
8	0xbd40c612	-0.047063895
9	0xbe1befbf	-0.15228175
10	0x399c69b6	0.000298334
11	0x3d49a3f6	0.04922863
12	0xbe371ad8	-0.17881334
13	0xbe86b542	-0.26310164
14	0x3de1e8b7	0.11030715
15	0xbe5d65cd	-0.21620865

encoder.conv2.weight f4 [32, 16, 3, 3]
0	0xbda16182	-0.07879926
1	0xbd6e6bca	-0.058208264
2	0xbb19a9c2	-0.002344713
3	0xbd813690	-0.06309235
4	0x3d88f245	0.06686834
5	0x3dc235bf	0.094829075
6	0xbd2a5a2e	-0.04158991
7	0x3d7021a5	0.058625836
8	0x3afb55c3	0.0019175339
9	0x3df92939	0.12166066
10	0x3cda3b5f	0.026639638
11	0x3dca3cc7	0.098748736
12	0x3d456eec	0.048201486
13	0x3cd18b99	0.02557926
14	0x3bb337c3	0.005469294
15	0xbc7bced3	-0.015369135
16	0xbd627bee	-0.05529397
17	0xbe21ae1d	-0.15789075
18	0x3b2cda63	0.0026375286
19	0xbd5f5d62	-0.054532416
20	0x3d8a65a7	0.0675767
21	0x3d475428	0.048664242
22	0xbd182d0f	-0.037152346
23	0x3d7b94c2	0.061421163
24	0x3d9fe1c9	0.07806737
25	0xbe245f02	-0.16051868
26	0x3d3e31b7	0.04643413
27	0x3e32ee02	0.17473605
28	0xbcd759af	-0.026287882
29	0x3d7ef746	0.062247537
30	0x3d452650	0.04813224
31	0xbe64328a	-0.22284904
32	0xbdd274b5	-0.10276166
33	0x3deba878	0.11506742
34	0xbe9c0422	-0.30471903
35	0xbdf68ca0	-0.12038541
36	0x3db4b5e2	0.08823754
37	0x3da1c8a6	0.07899599
38	0x3ddfa82a	0.109207466
39	0xbe38fc96	-0.18065104
40	0xbe2f377b	-0.17111008
41	0x3d3d8fe4	0.046279803
42	0x3d7021aa	0.058625855
43	0xbe320827	-0.17385922
44	0x3e224641	0.15847112
45	0x3d82b608	0.06382376
46	0x3d1d59f1	0.038415853
47	0x3db92a7c	0.090413064
48	0x3d24ab67	0.040202525
49	0xbe2c03a0	-0.16798258
50	0xbd7133f1	-0.058887426
51	0x3c43272e	0.011911197
52	0xbe3941ac	-0.18091458
53	0x3dd0000e	0.101562604
54	0xbd78b71c	-0.0607215
55	0x3c817a09	0.015805261
56	0x3d2d67b8	0.042335242
57	0xbdb52a3b	-0.088459454
58	0x3cb9c94e	0.022678997
59	0x3d0a6cce	0.03379517
60	0xbcbeb308	-0.023278728
61	0x3c970235	0.01843367
62	0x3df7b044	0.12094167
63	0xbdacf453	-0.08445039
64	0xbd833f58	-0.06408566
65	0xbd126b55	-0.03574689
66	0x3c01c2ed	0.007920009
67	0x3d28a358	0.0411714
68	0x3d90d89e	0.070725664
69	0xbdbe6018	-0.09295672
70	0x3ddd84d4	0.108163506
71	0x3df1d304	0.11807826
72	0x3d818daf	0.06325852
73	0x3cb1885b	0.021671465
74	0xbcd0ad2a	-0.025473196
75	0x3e128fd2	0.14312676
76	0xbd395a08	-0.045251876
77	0xbd47d4b3	-0.04878683
78	0x3da354fa	0.07975192
79	0xbeafe5b4	-0.34354937
80	0xbe613fde	-0.2199702
81	0xbddb6154	-0.10711923
82	0xbdb71798	-0.08940047
83	0xbca14fcc	-0.01969137
84	0xbde718a4	-0.11283997
85	0xbd3c1c96	-0.0459257
86	0x3c4ffc1c	0.012694385
87	0x3d72e5ff	0.059301373
88	0x3e2a4587	0.16628085
89	0x3e0165af	0.12636445
90	0x3d4fa736	0.050696574
91	0xbd3db456	-0.04631456
92	0x3ba53dff	0.005042791
93	0xbcfe97da	-0.031078268
94	0xbdab174c	-0.08354053
95	0xbc207881	-0.009794355
96	0x3cb1a76b	0.021686276
97	0xbc06ec2d	-0.00823502
98	0x3cc0fc48	0.023557797
99	0xbd2cd187	-0.04219201
100	0xbcc8781b	-0.024471333
101	0xbdc6bb28	-0.09703666
102	0x3d800d33	0.062525176
103	0x3da7d1f0	0.08194339
104	0x3de17141	0.110079296
105	0x3e042695	0.12905343
106	0xbd6961c8	-0.056978017
107	0x3e00d685	0.12581833
108	0x3b0615ce	0.0020459774
109	0xbd676d18	-0.056500524
110	0xbbe54f1c	-0.006997956
111	0xbd98dea6	-0.07464342
112	0x3c156244	0.009117667
113	0xbcc551c9	-0.02408685
114	0x3c09e174	0.008415569
115	0x3ba276fb	0.0049580312
116	0x3dfde0ca	0.12396391
117	0x3d30ea30	0.04319209
118	0x3d3d8a68	0.046274573
119	0x3d914044	0.07092336
120	0xbd97b85e	-0.07408212
121	0xbd4bcc13	-0.049755167
122	0x3d276f53	0.04087765
123	0x3d42615b	0.047456127
124	0xbd61dcc6	-0.055142187
125	0xbd495820	-0.04915631
126	0x3d64faa5	0.055903096
127	0x3db04421	0.086067446
128	0xbc10da2d	-0.00884108
129	0x3debb799	0.11509628
130	0xbd77278d	-0.060340453
131	0x3c8b7577	0.017023785
132	0x3cd27371	0.025689812
133	0xbea6eeb1	-0.32603982
134	0x3cdf4ed9	0.027259277
135	0xbc29267e	-0.010324119
136	0x3c0b3750	0.008497074
137	0xbce2fc6d	-0.027708257
138	0x3debaa57	0.11507099
139	0x3dd0871c	0.1018202
140	0xbcedfb11	-0.029050382
141	0xbd0b39c8	-0.03399065
142	0xbd50cec1	-0.050978426
143	0xbcc425d6	-0.023943823
144	0x3b9affbe	0.004730194
145	0x3da63ec9	0.08117444
146	0xbd804090	-0.06262314
147	0x3d266358	0.040622085
148	0x3d6484ba	0.05579064
149	0x3d5ebecb	0.054381173
150	0x3ccc9b6a	0.024976451
151	0x3d74ff57	0.059813824
152	0xbd0647e7	-0.032783415
153	0x3c7b484c	0.015337061
154	0x3cb08bbe	0.02155101
155	0x3cc67bdf	0.024228988
156	0xbd510460	-0.051029563
157	0xbe61030d	-0.2197382
158	0xbdd7d355	-0.10538355
159	0xbc490e4d	-0.012271476
160	0x3c43cb5d	0.011950341
161	0xbd6de7c3	-0.058082353
162	0x3ce90547	0.0284449
163	0xbd86a9b0	-0.06575334
164	0x3b0c2ffe	0.002139091
165	0x3d5dbf27	0.054137375
166	0xbd329c25	-0.043605942
167	0xbd7694cf	-0.06020051
168	0x3d313bd1	0.043269936
169	0xbd7ff890	-0.062492907
170	0x3c91c5f3	0.017794585
171	0x3c88086d	0.01660558
172	0x3c5da231	0.013527439
173	0x3d9e14e0	0.07718825
174	0xbd100a63	-0.035166156
175	0xbe826b86	-0.2547266
176	0xbd820ce4	-0.06350115
177	0xbd301d7a	-0.04299686
178	0xbbd9a7db	-0.0066423244
179	0xbe1b28fd	-0.15152355
180	0x3ce82707	0.028338922
181	0xbd6da4cc	-0.05801849
182	0x3da43465	0.08017806
183	0xbdb83081	-0.089936264
184	0xbd620407	-0.055179622
185	0xbd80be82	-0.062863365
186	0xbc9fa241	-0.019486548
187	0x3c90e7a2	0.017688576
188	0x3d6b3d4b	0.0574315
189	0x3d828478	0.06372923
190	0xbe002df9	-0.12517537
191	0x3c1e1a41	0.009649814
192	0xbac928cd	-0.0015347243
193	0xbea0a026	-0.31372184
194	0xbe1f0eb3	-0.15532951
195	0x3e184f8a	0.14874092
196	0xbe100093	-0.14062719
197	0xbc1cca64	-0.009569738
198	0x3d736bb7	0.059428897
199	0x3ce21182	0.027596239
200	0xbd73842a	-0.059452213
201	0x3d9c27a0	0.07624745
202	0xbbe38789	-0.0069436473
203	0xbe002d52	-0.12517288
204	0x3d65519a	0.055986024
205	0x3d8a4daa	0.067530945
206	0xbd154765	-0.03644504
207	0x3ceb092b	0.028690895
208	0xbd411558	-0.047139496
209	0x3cc796a5	0.024363825
210	0xbcb72747	-0.022357596
211	0x3db22781	0.08698941
212	0x3dc4b280	0.09604359
213	0x3c9f520b	0.0194483
214	0xbd8a63ab	-0.067572914
215	0x3dac2269	0.08405001
216	0xbd7cc154	-0.06170781
217	0xbd35a46f	-0.04434627
218	0xbd9d80f5	-0.07690612
219	0x3ccd172a	0.02503546
220	0xbe7eb4d3	-0.24873666
221	0xbda0490b	-0.07826432
222	0x3c2d53f6	0.0105791
223	0xbd59b94b	-0.053155225
224	0xbc8df226	-0.01732738
225	0x3db01b2e	0.08598934
226	0xbd127600	-0.035757065
227	0xbd12cddb	-0.03584085
228	0xbd98ece6	-0.0746706
229	0xbe2fa675	-0.17153342
230	0xbdfd8a79	-0.12379927
231	0xbc3ade27	-0.011405504
232	0xbca6d3c4	-0.02036465
233	0xbcbc8a6e	-0.023015227
234	0xbcf3a694	-0.029742517
235	0xbd0b5b98	-0.034022897
236	0x3d01322d	0.031541992
237	0xbda1f4d3	-0.07908025
238	0xbaeb312c	-0.0017943732
239	0x3d507049	0.050888333
240	0x3d83313f	0.06405877
241	0xbd9fde16	-0.078060314
242	0xbdae830a	-0.085210875
243	0xbba4e0dc	-0.005031688
244	0x3c101b1a	0.008795524
245	0x3b77f7f1	0.0037836994
246	0x3d00924e	0.031389527
247	0x3bce7289	0.0063002747
248	0x3da22628	0.07917434
249	0xbb706113	-0.0036678954
250	0xbd415848	-0.047203332
251	0xbd46a1e6	-0.048494242
252	0xba05210a	-0.00050784706
253	0x3d1b1d62	0.03786982
254	0xbc948f48	-0.018134728
255	0xbcb5ea1a	-0.022206355

encoder.conv2.bias f4 [32]
0	0xbcbccc3d	-0.023046607
1	0x3d3e961d	0.046529878
2	0x3d657523	0.056019913
3	0xbd8283f4	-0.06372824
4	0xbda9906a	-0.08279498
5	0xbd7193d9	-0.05897889
6	0x3dfc4a9c	0.12318918
7	0x3bc1c006	0.0059127836
8	0x3d5b2743	0.05350424
9	0x3d604ee9	0.054762755
10	0xbd1c7e3d	-0.038206328
11	0x3d3339e7	0.04375639
12	0x3cd85c01	0.026411058
13	0xbd89c68a	-0.067273214
14	0x3d32f788	0.043693095
15	0xbd150a4e	-0.03638678
16	0x3d43690c	0.047707602
17	0x3de26aa4	0.11055496
18	0xbd29ca71	-0.04145283
19	0xbe0cf207	-0.13764201
20	0xbcdb66a5	-0.026782343
21	0x3d4a7922	0.049431928
22	0xbd33800b	-0.043823283
23	0x3d834593	0.064097546
24	0x3d562e55	0.05229028
25	0xbdb9d9ed	-0.09074769
26	0x3d62dba4	0.055385247
27	0x3da5b0c6	0.080903575
28	0xbd44be0e	-0.048032813
29	0x3d5a6bce	0.053325467
30	0xbd6580ad	-0.056030918
31	0xbd294c4d	-0.04133253

encoder.conv3.weight f4 [64, 32, 3, 3]
0	0x3c325fe9	0.010887125
1	0xbdc77331	-0.09738768
2	0xbdbb63d2	-0.091498986
3	0x3e0e52f0	0.13898826
4	0x3e8bbc70	0.27292204
5	0x3dbf0def	0.093288295
6	0xbda4c06e	-0.080445156
7	0xbe73ac21	-0.2379613
8	0xbdfd61e5	-0.123721875
9	0x3d491758	0.049094528
10	0x3d90a3e2	0.07062508
11	0x3d0eb1fd	0.03483771
12	0x3dbb88a1	0.09156919
13	0x3df6744b	0.120339
14	0x3bb77f41	0.0055998866
15	0xbe39081e	-0.18069503
16	0xbe3c3681	-0.18380167
17	0xbe281ebb	-0.16417973
18	0x3d44e7ee	0.048072748
19	0x3d850c2a	0.06496461
20	0x3d06c8a3	0.032906186
21	0x3d59960f	0.053121623
22	0x3ddf9b47	0.10918289
23	0x3d2470f1	0.04014677
24	0x3d5b8570	0.053594053
25	0xbdaeb71f	-0.08531021
26	0xbd4c0a58	-0.049814552
27	0x3c91c79d	0.017795378
28	0x3d2027bc	0.039100394
29	0xbc44dd61	-0.0120156715
30	0x3d919eb9	0.07110352
31	0x3d9307a3	0.07179191
32	0x3d113a53	0.035456013
33	0xbd3b7867	-0.04576912
34	0xbca42b03	-0.02004004
35	0xbda90045	-0.082520045
36	0x3d2dbadd	0.042414535
37	0x3d6eb8bc	0.058281645
38	0x3da06303	0.07831385
39	0x3d0f367b	0.034964066
40	0x3e05c126	0.13061962
41	0x3db6d677	0.08927625
42	0xbce5fd80	-0.02807498
43	0x3d28c945	0.04120757
44	0xb9629e02	-0.00021611902
45	0x3bf503aa	0.0074772434
46	0x3c6e1f61	0.0145338485
47	0x3c045066	0.008075809
48	0xbca47d0a	-0.020079155
49	0x3c262d2b	0.010142605
50	0x3d8cc44e	0.0687338
51	0xbcdb8cb5	-0.026800493
52	0xbdb5aeec	-0.08871254
53	0x3d13620a	0.03598217
54	0xbced399e	-0.028958138
55	0xbc2de83b	-0.01061445
56	0xbb14548a	-0.0022633397
57	0x3d9dfefe	0.077146515
58	0x3e2ea911	0.17056681
59	0x3e083fca	0.13305584
60	0xbe3a792e	-0.18210289
61	0xbeaffd34	-0.34372866
62	0xbdd5328f	-0.10410034
63	0xbd7efbef	-0.06225198
64	0xbdb017ba	-0.085982755
65	0xbd51d791	-0.05123097
66	0x3df8a86d	0.121415
67	0x3dc49595	0.09598843
68	0x3d8435d7	0.06455582
69	0xbddfa43b	-0.10919996
70	0x3d3ba769	0.04581395
71	0x3d24765e	0.040151946
72	0xbc7fd87a	-0.015615577
73	0x3ccd07a9	0.025028067
74	0x3cecc07a	0.028900374
75	0xbce2a8b7	-0.02766834
76	0xbd186b4e	-0.03721171
77	0x3c8da50d	0.017290616
78	0xbcba5784	-0.022746809
79	0x3e2bb0c1	0.16766645
80	0x3debb5f7	0.115093164
81	0x3c6bca61	0.014391513
82	0x3b923d14	0.0044628475
83	0x3d0f75f6	0.035024606
84	0x3dbe439c	0.09290239
85	0x3e428a52	0.18998078
86	0x3e0f5d7e	0.14000508
87	0xbc82399c	-0.01589661
88	0x3d5f52e9	0.05452243
89	0xbd3a9a35	-0.04555722
90	0x3c98a628	0.018633917
91	0x3d89141a	0.06693287
92	0x3d8b2517	0.06794184
93	0xbe19373d	-0.14962478
94	0xbe9174c7	-0.28409407
95	0xbdc04420	-0.09387994
96	0x3cc6cb2d	0.024266804
97	0xbd13fb49	-0.036128316
98	0x3d2d0d2a	0.042248882
99	0x3c569e5b	0.013099278
100	0x3cacd416	0.021097224
101	0x3cad9160	0.021187484
102	0xbcfc1b00	-0.030774593
103	0x3ca1e58a	0.019762773
104	0xbbe26ec4	-0.006910177
105	0xbcc52304	-0.024064548
106	0xbe47a42f	-0.19496225
107	0xbe85db5d	-0.26143923
108	0x3c055518	0.008137964
109	0x3d05a8aa	0.032631554
110	0xbc667f7d	-0.0140684815
111	0x3be048fb	0.0068446374
112	0x3c676c33	0.014124918
113	0x3dc86730	0.097853065
114	0xbdac4140	-0.08410883
115	0xbd47c5d3	-0.048772644
116	0xbd81df94	-0.06341472
117	0x3c256dfc	0.010097023
118	0xbd20bf36	-0.039244853
119	0x3cc386db	0.023868015
120	0xbda2f894	-0.07957569
121	0x3de634ea	0.11240561
122	0x3d42f1a2	0.04759372
123	0x3b09fc0c	0.0021054773
124	0x3db2c2bc	0.08728549
125	0x3c45954f	0.012059524
126	0x3d228019	0.039672945
127	0xbd0881bd	-0.033326853
128	0x3c82ce42	0.015967492
129	0xbccde7d6	-0.025134962
130	0x3d0ec0ee	0.03485196
131	0x3cf0b9cf	0.029385475
132	0xbdaed074	-0.08535853
133	0xbe25bb61	-0.1618476
134	0xbe27d683	-0.16390423
135	0xbdbee664	-0.09321287
136	0x3cb2c622	0.021822993
137	0xbd2f3457	-0.042774525
138	0xbbbd11cf	-0.005769945
139	0x3e5b463d	0.21413513
140	0x3d8e5acf	0.06950914
141	0xbd75830a	-0.05993942
142	0x3e71cb6c	0.23612756
143	0x3e0422e7	0.12903939
144	0x3cb5d52b	0.022196373
145	0xbd460911	-0.04834849
146	0xbcd95ef3	-0.026534533
147	0xbc2327bc	-0.009958204
148	0x3bb5c072	0.005546623
149	0x3cc73a2b	0.024319729
150	0x3cc67df0	0.024229974
151	0x3e5a7816	0.21334872
152	0x3e24fb6c	0.16111535
153	0xbcd37ace	-0.025815394
154	0x3d7639f8	0.060113877
155	0x3dd69575	0.104777254
156	0x3c0b512b	0.008503239
157	0x3dc29d9e	0.09502719
158	0x3d7bb7fd	0.06145476
159	0xbe0505a4	-0.12990433
160	0xbed72ad4	-0.42024863
161	0xbe9110a4	-0.28333008
162	0xbd4754c2	-0.048664816
163	0xbc7cc615	-0.015428086
164	0xb93ec120	-0.00018191757
165	0xbc6ac16e	-0.014328344
166	0x3c632c40	0.0138655305
167	0xb8ef7e9f	-0.00011419993
168	0xbd0284c9	-0.031864915
169	0xbb48a0a8	-0.0030613337
170	0xbc587cea	-0.013213376
171	0x3d3c228e	0.04593139
172	0xbd4422dd	-0.04788481
173	0xbd78657c	-0.060643658
174	0xbcf327e4	-0.029682107
175	0xbdc20f75	-0.094756044
176	0xbc8b12ad	-0.016976679
177	0x3d8670cc	0.06564483
178	0x3e095d5f	0.13414524
179	0x3d5976d4	0.05309184
180	0xbc8710bb	-0.01648747
181	0xbdb1b7c3	-0.08677628
182	0x3c42c022	0.011886628
183	0x3c507a98	0.012724541
184	0x3cd55532	0.0260416
185	0xbd678b8a	-0.05652956
186	0xba1a3198	-0.0005882024
187	0x3cae1735	0.0212513
188	0x3dbbbbb7	0.09166663
189	0xbc1853c8	-0.009297319
190	0xbd8487bc	-0.06471202
191	0xbcf218a1	-0.02955276
192	0x3c913641	0.017726066
193	0xbeb6f59a	-0.35734254
194	0xbe9250d8	-0.28577304
195	0xbc44c59a	-0.0120100025
196	0xbdbd7d97	-0.0925247
197	0xbc62fcee	-0.013854248
198	0xbdc16ca7	-0.09444552
199	0xbd1d2185	-0.038362045
200	0x3d645a56	0.055750214
201	0x3c2110c8	0.009830661
202	0xbe81264f	-0.2522454
203	0xbdf29e07	-0.118465476
204	0x3c8b115c	0.016976051
205	0x3d71e97f	0.05906057
206	0x3dc613db	0.09671756
207	0xbcf78148	-0.030213013
208	0x3e5c5285	0.21515854
209	0x3de5ac4a	0.11214502
210	0xbf0846fa	-0.532333
211	0xbf2e1e0f	-0.68014616
212	0xbd8a9520	-0.067667246
213	0x3d9587b4	0.07301274
214	0x3bc0cc45	0.005883726
215	0xbd221287	-0.03956845
216	0xbc56cd80	-0.013110518
217	0xbb80a023	-0.00392534
218	0x3d8f3291	0.06992067
219	0x3defb6ef	0.11704814
220	0x3d8d8da8	0.069117844
221	0x3db89b8e	0.09014045
222	0xbdd92489	-0.10602672
223	0xbe33d8a0	-0.17563105
224	0xbdce3a88	-0.10069758
225	0x3c2a8fd1	0.010410265
226	0x3da3718a	0.0798064
227	0xbba880e7	-0.0051423195
228	0xbcf752ad	-0.03019079
229	0xbdac9cc8	-0.08428341
230	0xbd4f652b	-0.05063359
231	0xbdc2d55d	-0.09513352
232	0xbebeaff0	-0.37243605
233	0xbe1a1b1e	-0.15049407
234	0xbda54a5b	-0.08070823
235	0x3cd8cfab	0.026466211
236	0xbd2964b0	-0.04135579
237	0x3def9ca4	0.11699799
238	0x3e7208ff	0.23636244
239	0x3e10559b	0.14095156
240	0x3e2d9334	0.16950685
241	0x3d7cd06b	0.0617222
242	0x3d4403cb	0.04785518
243	0x3cd8d253	0.026467478
244	0x3d228157	0.03967413
245	0x3ccc7cb4	0.024961807
246	0xbcc1d075	-0.02365897
247	0x3cea98d5	0.02863733
248	0xbb69815a	-0.0035630078
249	0xbb66b998	-0.0035205837
250	0x3d948973	0.07252779
251	0xbc07d87e	-0.008291362
252	0x3d5c29af	0.05375069
253	0xbcaa2b37	-0.02077256
254	0x3c389a3d	0.011267242
255	0x3d8dfe1b	0.069332324

encoder.conv3.bias f4 [64]
0	0x3d8154e0	0.06315017
1	0xbc5be823	-0.013422045
2	0x3ca8cd3b	0.020605674
3	0xbd8deb48	-0.06929642
4	0x3d8c0627	0.06837111
5	0xbbe8112e	-0.007082126
6	0x3c64cea6	0.013965284
7	0x3d9b1e82	0.07574178
8	0xba0d90a4	-0.0005400276
9	0x3d8dbdd5	0.06920973
10	0x3d92997a	0.071581796
11	0x3d259418	0.040424436
12	0x3d7f7be7	0.06237402
13	0xba23623a	-0.00062325934
14	0x3da0668e	0.07832061
15	0x3cb12796	0.021625321
16	0x3d074f63	0.033034693
17	0xbd7bcc8e	-0.061474375
18	0x3daaa391	0.08331979
19	0x3cf15937	0.029461486
20	0xbd8a454c	-0.067514986
21	0x3bb60488	0.0055547394
22	0x3cc243f2	0.02371404
23	0xbd2cdf1d	-0.042204965
24	0x3d6e8ecf	0.05824166
25	0xbd0219c7	-0.031762864
26	0xbd6ed720	-0.058310628
27	0xbd529fb8	-0.05142185
28	0x3d45d5a3	0.048299443
29	0x3c2d9c7e	0.010596393
30	0x3d7d27d6	0.06180557
31	0xbda4df59	-0.08050413
32	0xbdbb2aa4	-0.091389924
33	0x3dbe5736	0.09293978
34	0x3d73989f	0.059471723
35	0x3d83c9ef	0.06435
36	0x3d6e87c5	0.05823495
37	0x3d99fc4c	0.07518825
38	0x3dce94df	0.10086989
39	0x3dc8e954	0.09810129
40	0xbd0f0bc5	-0.034923334
41	0xbccb54e5	-0.024820754
42	0x3b95772b	0.004561325
43	0x3d5ba0d9	0.053620193
44	0x3ce4a955	0.027912775
45	0x3cdf7597	0.02727775
46	0x3db99578	0.09061712
47	0xbd73b503	-0.059498798
48	0xbc62345e	-0.013806431
49	0x3d835ba0	0.064139605
50	0x3d0de589	0.03464273
51	0xbd8519d8	-0.0649907
52	0x3d8fe064	0.07025221
53	0x3dc448dc	0.09584209
54	0x3c6ae7b8	0.014337473
55	0xbc5df42b	-0.013546984
56	0x3da2c862	0.07948376
57	0x3bfa0d04	0.007630946
58	0xbcf029d0	-0.029316813
59	0xba6c10f7	-0.00090052135
60	0x3d30eb4f	0.043193158
61	0x3d1787e8	0.036994845
62	0x3d56d567	0.05244961
63	0x3b5e8758	0.0033955183

decoder.conv1.weight f4 [64, 32, 4, 4]
0	0x3bee57df	0.0072736586
1	0x3a092b2f	0.000523257
2	0xbc1910fc	-0.009342428
3	0x3ca5c4b9	0.020235406
4	0xbc8faa05	-0.017537126
5	0xbce0ed6f	-0.027456967
6	0x3c9df96e	0.019283976
7	0x3ae293d0	0.0017286483
8	0x3b09b54d	0.0021012605
9	0x3c5cb6ec	0.013471346
10	0x3d47036f	0.04858726
11	0x3c746fed	0.014919263
12	0xbb738304	-0.0037156949
13	0xbeaf87f3	-0.3428341
14	0xbe9c866c	-0.30571306
15	0xbdfbc3f8	-0.122932374
16	0x3c0a8283	0.008453968
17	0x3d206388	0.03915742
18	0x3b90245c	0.0043988656
19	0xbd589a35	-0.05288144
20	0xbbeea713	-0.0072831004
21	0x3dd50291	0.1040088
22	0xbc624e3c	-0.013812598
23	0x3ccadf02	0.024764542
24	0x3d12cb1b	0.035838228
25	0x3ad741e0	0.001642283
26	0xbbf0f94b	-0.007353937
27	0xbd0f536c	-0.034991667
28	0x3da53b99	0.08068008
29	0xbe116501	-0.14198686
30	0xbe49200d	-0.19641133
31	0x3ed89007	0.42297384
32	0xbc8e4f53	-0.01737181
33	0xbb94de4e	-0.0045431023
34	0xbc894215	-0.016755143
35	0xbc75f503	-0.015012029
36	0xbd34d595	-0.044149
37	0xbd874b98	-0.06606215
38	0xbd13d1b6	-0.036088668
39	0x3c1a4093	0.00941481
40	0x3d7feaa9	0.06247965
41	0x3e54f9c0	0.20798397
42	0x3e4a4a75	0.19754966
43	0x3d055e4b	0.032560628
44	0xbcecc0d5	-0.028900543
45	0x3ec22c7f	0.37924573
46	0xbd29bed2	-0.041441746
47	0xbc077b35	-0.008269121
48	0xbbf320d5	-0.0074196854
49	0xbc244531	-0.010026262
50	0x3b866fbe	0.004102676
51	0xbc1195f4	-0.008885849
52	0x3bd81d90	0.006595321
53	0x39fdc3f9	0.0004840193
54	0xbcd6c1e2	-0.026215497
55	0xbd0972ce	-0.033556752
56	0x3d8f2a47	0.06990486
57	0xbd13b5d6	-0.036062084
58	0xbe39004b	-0.18066518
59	0xbdc21fd7	-0.09478729
60	0xbc9e3acc	-0.019315146
61	0xbdbe7934	-0.093004614
62	0xbde8992c	-0.1135734
63	0xbd7c573b	-0.061606627
64	0xbd05ffeb	-0.032714766
65	0x3d3443ac	0.04400985
66	0x3c616259	0.013756358
67	0xbdc3d1d6	-0.095615074
68	0x3c4e14cd	0.0125782015
69	0x3c4a0447	0.012330121
70	0x3b9c243f	0.004765063
71	0xbd00a07b	-0.031403046
72	0xbcf33f91	-0.029693397
73	0xbd584845	-0.052803297
74	0xbd1b0b1b	-0.037852388
75	0x3e112a9e	0.14176413
76	0xbe990312	-0.29885155
77	0xbdac32d0	-0.08408129
78	0xbb0ae5fb	-0.0021194208
79	0xbd44d672	-0.048056073
80	0x3c4870e5	0.012233947
81	0xbd321f90	-0.04348713
82	0xbc2189cc	-0.0098595135
83	0xbab6af23	-0.0013937693
84	0x3cfb89ae	0.0307053
85	0xbd0604c7	-0.0327194
86	0xbca6b211	-0.02034858
87	0xbd447dfa	-0.047971703
88	0x3a4789af	0.0007611764
89	0xbdcfeebf	-0.10152959
90	0xbde06886	-0.10957436
91	0xbd915c17	-0.07097643
92	0xbc477869	-0.012174704
93	0xbb236675	-0.0024932895
94	0xbcda6aa8	-0.026662186
95	0xbcb96421	-0.022630753
96	0xbcc67ade	-0.02422851
97	0x3bb68d1b	0.0055710203
98	0xbcc58f3b	-0.02411615
99	0x3c2502ba	0.010071451
100	0x3d6b3ed3	0.05743296
101	0xbd89dd0c	-0.067316145
102	0xbd0f2419	-0.034946535
103	0x3c1e4f22	0.009662421
104	0xbbb611b3	-0.005556309
105	0xbe1e415b	-0.15454619
106	0xbc800606	-0.015627872
107	0x3dbf33a9	0.09336025
108	0x3d0b86c3	0.034064066
109	0x3db6ad1c	0.08919737
110	0x3e3fb823	0.18722586
111	0xbd5e6d2a	-0.054303326
112	0x3ca72a86	0.020406019
113	0xbcfcf25a	-0.030877281
114	0x3d04e40e	0.032444052
115	0x3d431f24	0.04763712
116	0xbc22e395	-0.009941955
117	0xbd647534	-0.055775836
118	0x3e628553	0.22121172
119	0xbb68db13	-0.003553097
120	0x3e92bc4d	0.28659287
121	0x3cd48a68	0.025944903
122	0x3faaf557	1.3356122
123	0x3cf5764f	0.02996364
124	0xbd3922cd	-0.045199204
125	0xbdf6127b	-0.120152436
126	0xbe6c07a3	-0.23049788
127	0xbe54d8eb	-0.20785873
128	0xbbd88255	-0.0066073337
129	0x3cb8d490	0.022562295
130	0xbd320ac1	-0.043467287
131	0x3c00016e	0.007812841
132	0x3d1a1070	0.037613332
133	0xbc3d7625	-0.011563812
134	0xbd45df90	-0.04830891
135	0x3c23e8b1	0.010004208
136	0x3d5c9fe2	0.053863414
137	0xbe0be792	-0.13662556
138	0xbd8c6d8e	-0.068568334
139	0xbc0e7141	-0.008693994
140	0xbc3b4ac2	-0.011431398
141	0xbea0f551	-0.31437162
142	0xbeb2f536	-0.34952706
143	0xbd35d63e	-0.04439377
144	0xbba9bf03	-0.005180241
145	0x3c9ec273	0.01937983
146	0x3c8b82f3	0.017030215
147	0x3bd0bb66	0.006369996
148	0xbc0af4fb	-0.008481259
149	0xbd0d59cf	-0.034509476
150	0x3be083c2	0.0068516443
151	0xbc0fae43	-0.008769575
152	0xbc967467	-0.018366052
153	0xbde693a0	-0.11258626
154	0xbce038ab	-0.027370771
155	0xbdf72d4b	-0.12069186
156	0x3d46342c	0.0483896
157	0xbf0dde56	-0.5541738
158	0xbd79ac07	-0.060955074
159	0xbde9037d	-0.113776185
160	0xbd1ec463	-0.038761508
161	0xbc75f2e9	-0.015011528
162	0xbcf81796	-0.030284684
163	0x3c33a851	0.010965423
164	0x3c8401a1	0.016114058
165	0x3c5ebb64	0.013594482
166	0xbd00b09a	-0.03141842
167	0xbceb7dcb	-0.028746506
168	0xbd0bc2db	-0.034121376
169	0x3e482bfe	0.19548032
170	0x3bf3a4ad	0.0074354024
171	0x3dc9f206	0.098606154
172	0x3dfd6073	0.12371912
173	0xbe892d48	-0.2679236
174	0xbe66b8c8	-0.22531426
175	0xbe2c5e90	-0.16832948
176	0x3be8a9de	0.007100328
177	0x39a79015	0.00031960072
178	0x3aae4939	0.0013296969
179	0xba23b7a7	-0.0006245323
180	0xbd141ec4	-0.036162153
181	0x3c8a405e	0.016876396
182	0x3c146643	0.009057584
183	0xbcc38328	-0.023866251
184	0x3dc1ddba	0.09466119
185	0x3ea84a14	0.32869017
186	0x3e899f14	0.2687918
187	0x3d4cfe18	0.05004701
188	0xbd6f8660	-0.05847776
189	0xbdf40bbc	-0.11916301
190	0xbdad61a2	-0.084658876
191	0xbdb0655c	-0.08613083
192	0x3ba11197	0.004915427
193	0xbced432f	-0.0289627
194	0x3cc1201a	0.023574878
195	0x3a15a3f6	0.0005708331
196	0x3cc5d4ad	0.024149263
197	0xbcc76ddb	-0.024344375
198	0x3d26d369	0.04072896
199	0xbc2df5a2	-0.010617645
200	0xbc372b89	-0.011179813
201	0x3d80fcb0	0.06298196
202	0xbd9c967e	-0.076458916
203	0xbd98a9ca	-0.0745426
204	0x3c01a22a	0.007912198
205	0xbd4638db	-0.048394065
206	0x3d11692f	0.0355007
207	0xbd2f8010	-0.04284674
208	0x3d23b2d0	0.03996545
209	0x3b98f24a	0.004667555
210	0x3c90fd7d	0.017698998
211	0x3d127d29	0.035763893
212	0x3d1cce49	0.038282666
213	0x3d5735ca	0.05254153
214	0xbd1b5ed8	-0.037932247
215	0xbd5ddd53	-0.05416615
216	0xbc9c5f13	-0.019088304
217	0x3d15010e	0.03637796
218	0xbd53887c	-0.051643834
219	0xbc9da472	-0.019243453
220	0x3cfa24c9	0.030535119
221	0xbfa67e59	-1.3007308
222	0x3d699378	0.057025403
223	0xbed07da7	-0.40720865
224	0x3bb8deec	0.0056418087
225	0x3c108495	0.0088206725
226	0x3ba61d11	0.005069383
227	0x3997a175	0.0002892126
228	0xbd884aad	-0.06654868
229	0x3d772754	0.06034024
230	0x3cff90f9	0.031197058
231	0x3c20d4fc	0.009816404
232	0xbcaeba7b	-0.021329155
233	0xbd888e4e	-0.066677675
234	0xbd393c74	-0.04522367
235	0x3d1171f6	0.035509072
236	0xbde8f80a	-0.11375435
237	0xbe815571	-0.252605
238	0xbe499735	-0.19686587
239	0x3d081694	0.033224657
240	0x3cde35c8	0.027125254
241	0x3c8c018d	0.017090583
242	0xbce30a21	-0.02771479
243	0xbc3fc00a	-0.0117035005
244	0x3d7877ff	0.060661312
245	0x3dd90d1d	0.10598204
246	0xbd1569df	-0.03647792
247	0xbd8dc860	-0.06922984
248	0x3dafc2e3	0.085820936
249	0x3b797f6b	0.0038070332
250	0xbce14932	-0.027500723
251	0xbc96aa1f	-0.018391667
252	0x3d323d67	0.04351559
253	0x3c92759c	0.017878346
254	0xb9fc11f1	-0.00048078553
255	0xbd5f7478	-0.054554433

decoder.conv1.bias f4 [32]
0	0x3dcb11c7	0.099155
1	0x3d5c22e8	0.053744227
2	0x3d2ba4ed	0.041905332
3	0x3cf8c260	0.030366123
4	0x3cd2e9c4	0.025746234
5	0x3d0d6856	0.03452333
6	0x3d64b514	0.055836752
7	0x3d4b7947	0.049676206
8	0x3dc9d706	0.098554656
9	0x3d511b44	0.051051393
10	0x3ce58632	0.02801809
11	0x3dab4d89	0.08364398
12	0x3d015bc5	0.03158166
13	0x3d956c23	0.07296016
14	0x3dc8ca5d	0.09804223
15	0x3d37ec33	0.04490299
16	0x3d4059fe	0.046960823
17	0x3dac6e21	0.08419443
18	0x3d1f598d	0.03890376
19	0x3dc1e544	0.09467557
20	0x3d670e21	0.05640996
21	0x3d9f4f7e	0.07778834
22	0x3d644181	0.055726532
23	0x3da70d40	0.08156824
24	0x3d7d9a11	0.061914507
25	0x3de675c5	0.112529315
26	0x3dc928ad	0.098222114
27	0x3d88c311	0.06677831
28	0x3d532666	0.05155029
29	0xbd6d3618	-0.057912916
30	0x3e1227c5	0.14272983
31	0x3cc82627	0.024432255

decoder.conv2.weight f4 [32, 16, 4, 4]
0	0xbdd7f6f7	-0.10545152
1	0xbdb7e95b	-0.08980056
2	0xbd80bc42	-0.06285907
3	0xbbf484a5	-0.0074621015
4	0x3d4c67f1	0.049903814
5	0xbd145e31	-0.03622264
6	0x3d718de3	0.058973204
7	0x3d293c7d	0.04131745
8	0x3dea2245	0.11432318
9	0x3d832b4d	0.06404743
10	0x3de20e34	0.11037865
11	0x3ba1ed5d	0.004941626
12	0x3cc88674	0.024478175
13	0x3d76854a	0.060185708
14	0xbbc1aa6f	-0.00591021
15	0x3b773284	0.0037719319
16	0xbc491cde	-0.012274949
17	0x3cb2d594	0.021830358
18	0xbd8b872d	-0.06812892
19	0xbd3f7cbf	-0.046749827
20	0x3c83a540	0.016070008
21	0x3c248832	0.010042237
22	0x3ae67fc0	0.001758568
23	0xbd822ac7	-0.063558154
24	0xbd8449e9	-0.0645941
25	0x3d6f2091	0.058380667
26	0x3d2e5e37	0.04257032
27	0xbdac0ef8	-0.084012926
28	0xbd413dda	-0.047178127
29	0xbd55ca79	-0.052195046
30	0xbd254d08	-0.040356666
31	0xbd997325	-0.07492665
32	0xbc79d1e3	-0.015247795
33	0xbc91998c	-0.017773412
34	0x3c8a4bd0	0.016881853
35	0xbd1c3d61	-0.038144473
36	0x3bdb72b1	0.006697022
37	0xbc818bd8	-0.015813753
38	0xbb548672	-0.0032428768
39	0x3d563574	0.05229707
40	0xbd03187c	-0.032005772
41	0xbd2cdf0a	-0.042204894
42	0xbc8e1c18	-0.01734738
43	0xbc8ed5ec	-0.01743599
44	0x38581db5	5.152608e-05
45	0x3cd188d5	0.025577942
46	0x3c5bf24c	0.013424467
47	0xbbd8e02c	-0.0066185202
48	0xbdd4a580	-0.10383129
49	0xbe028eb4	-0.1274975
50	0xbe287bb6	-0.16453442
51	0xbe423f8d	-0.18969555
52	0xbd2c725e	-0.042101257
53	0x3d80fcb5	0.062982
54	0xbdb59c9e	-0.08867763
55	0xbd3e4dd4	-0.04646094
56	0xbdc12af8	-0.09432024
57	0xbe190b50	-0.14945722
58	0xbe2f6774	-0.17129308
59	0xbd8dc15a	-0.069216445
60	0x3d1757fd	0.036949147
61	0xbc6f35ff	-0.014600276
62	0xbd557052	-0.05210907
63	0xbc7477b4	-0.014921118
64	0x39f383dd	0.00046446818
65	0x3c3bcb8e	0.011462105
66	0xbc961634	-0.018321134
67	0xbced2e28	-0.028952673
68	0x3df87d79	0.12133307
69	0xbd2cfaa0	-0.042231202
70	0xbdd2e919	-0.10298366
71	0xbca60d0d	-0.020269895
72	0xbd1b2980	-0.037881374
73	0x3a0b5ac5	0.0005315955
74	0x3cd80e0f	0.026373891
75	0xbd90c807	-0.07069402
76	0x3b831888	0.004000727
77	0x3b3a2bac	0.0028407378
78	0xbcee221d	-0.029069
79	0x3c29a5f1	0.010354505
80	0x3d827e95	0.063718
81	0x3dcff939	0.10154957
82	0x3c741a2c	0.014898818
83	0x3a944164	0.0011310992
84	0xbd8a33a3	-0.0674813
85	0xbe82dc6d	-0.25558797
86	0xbe45f69c	-0.19332355
87	0xbe0af67c	-0.13570589
88	0x3cc3b73c	0.023891084
89	0x3cdec1bf	0.027191995
90	0xbd4b89bd	-0.049691904
91	0xbb1e6102	-0.0024166708
92	0x3c852e5b	0.016257456
93	0xbc1800c5	-0.009277527
94	0xbd37dcd3	-0.04488833
95	0xbd8eb855	-0.06968752
96	0x3cad0653	0.02112118
97	0x3d456ada	0.048197605
98	0xbbff5a7a	-0.007792768
99	0xbd3a77b4	-0.045524314
100	0x3d8594f1	0.06522549
101	0x3d768fe0	0.060195804
102	0x3c5c8eca	0.013461778
103	0x3ad5d275	0.0016313331
104	0xbc266761	-0.010156483
105	0x3b9ced5b	0.004789037
106	0xbd6a0a16	-0.057138525
107	0xbd214355	-0.039370853
108	0x3cbd4ece	0.023108866
109	0x3cf192ca	0.02948894
110	0x3d0d215c	0.034455642
111	0xbc0ac74d	-0.008470369
112	0x3b21ae8e	0.0024670693
113	0x3b87bff7	0.004142757
114	0xbbcff49b	-0.006346298
115	0xbc0b32f1	-0.008496032
116	0xbdccec7a	-0.10006042
117	0x3e032f6b	0.12811057
118	0xbdde1e7e	-0.1084566
119	0xbce2a528	-0.027666643
120	0xbcabde12	-0.020979915
121	0xbc7ed46c	-0.015553575
122	0xbcad552c	-0.021158777
123	0xbdca064d	-0.09864483
124	0x3cdcfec9	0.02697696
125	0xbdc9a1ab	-0.09845289
126	0xbc777433	-0.015103388
127	0x3c38c266	0.011276817
128	0xbb69c553	-0.0035670593
129	0xbd96883f	-0.07350206
130	0xbc756b62	-0.014979215
131	0x3c31a9a1	0.010843665
132	0xbdb950ba	-0.090486005
133	0xbd11464c	-0.03546743
134	0xbc667237	-0.014065317
135	0x3ced4ad3	0.028966343
136	0x3b8f2909	0.0043689054
137	0x3ca7ff8f	0.020507602
138	0xbd02097c	-0.031747326
139	0x3d2adf43	0.041716825
140	0x3ca3cac3	0.019994145
141	0xbc667a84	-0.014067296
142	0xbd5c82ff	-0.053835865
143	0x3d2a6fde	0.04161059
144	0x3e19278c	0.14956492
145	0x3d204842	0.03913141
146	0xbd553a76	-0.052057706
147	0xbc8322a1	-0.016007723
148	0xbb3454ec	-0.0027516438
149	0xbd73e54e	-0.059544854
150	0xbe4bf61e	-0.19918105
151	0x3e689349	0.22712435
152	0x3d64f7d1	0.0559004
153	0xbdfa5631	-0.12223471
154	0xbdae7d52	-0.08519997
155	0xbca9e2f2	-0.020738099
156	0xbd8120e7	-0.06305104
157	0xbd2b83ce	-0.041873746
158	0xbb44c348	-0.0030023623
159	0x3d53823d	0.051637877
160	0x3d3072ef	0.04307836
161	0x3d8f2cd0	0.06990969
162	0xbba55b07	-0.0050462517
163	0xbd99e01c	-0.075134486
164	0xbe03f3d2	-0.12885979
165	0xbd27bded	-0.04095261
166	0xbe070f92	-0.13189533
167	0x3cc0f98c	0.023556493
168	0xbd842305	-0.06451992
169	0x3d0a0bc8	0.03370264
170	0xbd17a873	-0.03702588
171	0xbb424e15	-0.0029648591
172	0x3bd3ba89	0.0064614457
173	0xbd900371	-0.070319064
174	0xbd8e3a7a	-0.06944747
175	0xbd7a2b0a	-0.0610762
176	0xbd8d062d	-0.068859436
177	0x3c712950	0.014719322
178	0xbcbee763	-0.023303693
179	0xbc224918	-0.009905122
180	0xbd6c6af4	-0.057719186
181	0xbda23ece	-0.07922135
182	0xbd998e99	-0.074979015
183	0xbe385536	-0.18001255
184	0xbe5b969b	-0.2144417
185	0xbe27577b	-0.16341965
186	0xbe8de251	-0.27711728
187	0xbe071296	-0.13190684
188	0xbd7ece0b	-0.062208217
189	0xbc99e34a	-0.018785138
190	0xbda6d9d8	-0.08147019
191	0xbd7bd4ee	-0.061482362
192	0x3d3744ac	0.044743225
193	0x3be0979a	0.00685401
194	0x3d151832	0.036400028
195	0x3c4d4665	0.01252899
196	0x3b70d2f4	0.0036746832
197	0x3dca87ef	0.098892085
198	0x3daef327	0.085424714
199	0xbcb981ee	-0.022644963
200	0xbd2a15b6	-0.04152461
201	0xbc7bbc63	-0.015364739
202	0x3c89a09e	0.016800221
203	0xbbe0ac67	-0.0068564895
204	0x3c8c3dae	0.017119255
205	0x3d37b7d4	0.044853047
206	0x3b7089c9	0.003670322
207	0xbc8d475b	-0.017245939
208	0x3c6aa93d	0.014322576
209	0x3d3ffcb7	0.046871867
210	0x3bb1defc	0.005428193
211	0x3c829b98	0.015943334
212	0x3d4152c5	0.047198076
213	0x3dbd1286	0.09232049
214	0x3d848451	0.0647055
215	0x3d233788	0.03984788
216	0x3d2fdd82	0.042935856
217	0x3dbff70d	0.09373293
218	0x3cf7fcf7	0.03027199
219	0xbccaae20	-0.024741232
220	0xbba2208a	-0.0049477266
221	0xbb9f283c	-0.0048570912
222	0x3caaeaea	0.020863969
223	0xbcee9126	-0.029121947
224	0x3d3d5ef3	0.04623313
225	0x3d69aed7	0.057051506
226	0x3c538dd7	0.012912235
227	0x3d205eba	0.03915284
228	0xbd1ec9a2	-0.03876651
229	0xbd86bb14	-0.06578651
230	0x3d4906de	0.049078815
231	0x3c7501a0	0.014954001
232	0x3da1b1ad	0.07895217
233	0x3d8c0c2a	0.068382576
234	0x3d91ccc7	0.07119136
235	0x3cf03a91	0.029324802
236	0x3a4d775e	0.00078379165
237	0x3cfe1199	0.03101425
238	0x3ca05df8	0.019576058
239	0xbd33d0d3	-0.043900322
240	0xbcedb237	-0.029015644
241	0xbae2ad28	-0.0017294036
242	0xbc90ae42	-0.017661218
243	0xbb8f1912	-0.0043670023
244	0x3df5c86e	0.120011196
245	0x3d93421a	0.07190342
246	0x3df71c0a	0.12065895
247	0x3d8be6da	0.06831141
248	0x3d91fe1e	0.07128547
249	0x3d88f813	0.066879414
250	0x3d4f8582	0.050664432
251	0xbc9466d5	-0.01811544
252	0x3c01708e	0.00790037
253	0x3d0b5073	0.03401227
254	0x3c9eebbc	0.019399516
255	0x3c88cfa4	0.016700573

decoder.conv2.bias f4 [16]
0	0x3d521394	0.051288202
1	0xbd40ee85	-0.04710247
2	0x3be6dfa6	0.007045704
3	0x3d35fe80	0.044432163
4	0xbd747c14	-0.059688643
5	0x3dde2957	0.10847729
6	0x3d3d74f1	0.046254102
7	0x3d16f62e	0.03685587
8	0x3c130bb7	0.008974961
9	0x3e00d810	0.12582421
10	0x3dab1e35	0.08355371
11	0x3e0aa744	0.1354037
12	0x3dc4faf0	0.09618175
13	0x3d767623	0.060171258
14	0x3d64114c	0.055680558
15	0x3dafb657	0.085797004

decoder.conv3.weight f4 [16, 1, 3, 3]
0	0xbc966849	-0.018360274
1	0x3d8ac352	0.06775536
2	0x3db74b51	0.08949912
3	0xbd86d82f	-0.065842025
4	0x3d8a6a3c	0.06758544
5	0x3e3a5ca5	0.18199404
6	0xbe63ce53	-0.22246675
7	0xbeac72d4	-0.33681357
8	0xbd50528a	-0.050859965
9	0x3ea6a7df	0.3254995
10	0x3d2c91ed	0.042131353
11	0x3c7924b0	0.015206501
12	0x3f024668	0.5088868
13	0x3d53f74d	0.051749516
14	0xbc759f7c	-0.014991637
15	0x3f04e79e	0.5191592
16	0x3dea2823	0.11433437
17	0x3cc3ec60	0.023916423
18	0xbe4e4d89	-0.20146765
19	0xbe625c31	-0.2210548
20	0xbdd77b7e	-0.10521601
21	0x3e2b26cd	0.1671402
22	0x3d7f7ad1	0.062372986
23	0x3e6e75c9	0.23287119
24	0xbe50f6ee	-0.20406696
25	0x3e5ab4fe	0.21358106
26	0xbda98ee9	-0.08279211
27	0xbe1c30c6	-0.1525298
28	0xbe7029ed	-0.23453493
29	0xbdafc865	-0.08583144
30	0x3de14b09	0.1100064
31	0x3eae6838	0.34063888
32	0x3e1ae0e0	0.15124846
33	0xbd581ee4	-0.052763835
34	0xbd1ccc86	-0.038280986
35	0xbd54198a	-0.05178217
36	0xbd0f83b3	-0.035037708
37	0xbdebd92d	-0.11516032
38	0x3e75807a	0.23974791
39	0xbd6559ff	-0.05599403
40	0xbd2b0eae	-0.041762047
41	0x3ed131a9	0.408582
42	0xbd72458b	-0.059148353
43	0xbc9c0b7f	-0.01904845
44	0x3ebb83eb	0.36624083
45	0x3db832b5	0.089940466
46	0x3e05fb0b	0.13084047
47	0x3d4e5f73	0.050383996
48	0xbe95fd93	-0.29295024
49	0xbeb7996b	-0.35859236
50	0xbeb8ed60	-0.36118603
51	0xbe24dcb1	-0.16099812
52	0xbd901ca7	-0.07036715
53	0xbe4e45fd	-0.20143886
54	0x3e2182b5	0.15772517
55	0x3c1d0bc4	0.009585325
56	0xbdaeb8f0	-0.08531368
57	0xbe5f8715	-0.21828873
58	0x3d4cde43	0.050016653
59	0x3e7c3df9	0.24633016
60	0x3e8b6be0	0.2723074
61	0x3e8d669f	0.27617356
62	0x3e130492	0.14357212
63	0x3ec629f1	0.38703874
64	0x3ed8628d	0.42262688
65	0x3ebafd19	0.36521223
66	0x3b9a9574	0.004717523
67	0x3ca1c414	0.019746818
68	0x3cb5e0ba	0.022201885
69	0xbc20fa77	-0.0098253405
70	0x3c4e18fa	0.012579197
71	0x3ce9d18e	0.028542306
72	0x3c9f87d0	0.01947394
73	0x3d933a13	0.07188811
74	0xbe20249f	-0.1563897
75	0x3ddd7423	0.10813167
76	0x3e484136	0.19556126
77	0xbe92a2b8	-0.2863977
78	0x3da9a895	0.082841076
79	0x3dfdc25c	0.12390587
80	0xbe6f6a38	-0.23380363
81	0xbe186655	-0.14882787
82	0xbebc15a7	-0.3673527
83	0xbe89fb12	-0.26949364
84	0xbdd2f676	-0.10300915
85	0xbe91c05f	-0.2846708
86	0xbe9fa74d	-0.31182328
87	0xbdab3ad1	-0.08360828
88	0xbe0f9c20	-0.140244
89	0xbe417af6	-0.18894562
90	0x3bc0e86c	0.005887082
91	0xbd9aacf5	-0.0755252
92	0xbda9c6f6	-0.08289902
93	0xbdcd27dd	-0.10017369
94	0xbeeefe83	-0.46678552
95	0xbe915c79	-0.28390864
96	0x3c0e46dc	0.008683886
97	0xbe40c8a2	-0.18826535
98	0xbd85b2e9	-0.06528265
99	0xbd7b20fb	-0.06131075
100	0xbe886e84	-0.26646817
101	0xbe39d459	-0.1814741
102	0x3def1455	0.116738
103	0xbe590a54	-0.21195346
104	0xbe0d22d2	-0.13782814
105	0x3dea4e09	0.11440665
106	0xbc82cdc1	-0.015967252
107	0x3c8186ec	0.015811406
108	0x3dedfa78	0.11620039
109	0x3e3fb8a2	0.18722776
110	0x3e00db98	0.12583768
111	0x3db273d5	0.087134995
112	0x3ddf3d68	0.10900384
113	0x3d8664dd	0.06562207
114	0x3d4ab425	0.049488205
115	0x3d866631	0.0656246
116	0x3d98e211	0.07464994
117	0xbe1bbcce	-0.15208742
118	0xbbbf3b70	-0.005835943
119	0x3e0b639e	0.1361222
120	0x3e52e860	0.20596457
121	0x3ea7d4bf	0.327795
122	0x3dc259bf	0.09489774
123	0x3e55379c	0.20821995
124	0xbe3c9553	-0.18416338
125	0x3e771c5a	0.24131909
126	0x3ddf8ca8	0.109155
127	0x3d241ac5	0.040064592
128	0xbd01d236	-0.031694613
129	0xbe0c5c51	-0.13707091
130	0x3ddc6621	0.10761667
131	0x3eb25620	0.34831333
132	0x3da3eb7d	0.080039
133	0x3e666a99	0.22501601
134	0x3c0bf3df	0.00854203
135	0xbe31c97f	-0.17362021
136	0x3e53fa2f	0.20700906
137	0x3d835637	0.064129286
138	0x3eac9ad2	0.3371187
139	0x3e9c14ac	0.3048452
140	0xbe09b738	-0.13448799
141	0x3dff0e2d	0.12453876
142	0x3ea95ca8	0.33078504
143	0xbcdf3203	-0.027245527
